model_cnn.pth (torch, 435608 bytes, 8 tensors)

conv1.weight f4 [6, 3, 5, 5]
000000 70 bc 3a be 7b f9 33 be 68 17 08 bd 9d b9 b4 bd
       -0.18235946 -0.17575638 -0.033225447 -0.088244654
000010 0e 2c 3e bd b3 b5 cb 3c 7d c6 18 3d f0 7b d3 3d
       -0.046428733 0.024866914 0.03729867 0.103263736
000020 43 5d 2c bd aa 03 b7 bc 01 40 af 3d 4e 98 39 3e
       -0.04208113 -0.022340614 0.0855713 0.18124506
000030 01 b5 08 3e 09 c2 1b 3e 11 18 f1 3c 07 f2 8f 3c
       0.13350298 0.15210737 0.029430421 0.017571462
000040 6b 40 7d bc e0 dc aa 3d 57 4d d9 3d 7a 5f d6 3d
       -0.015457253 0.0834291 0.106104545 0.104674295
000050 11 b9 45 3d 75 fd ad 3d 7f a7 9f 3d b6 bb 52 3d
       0.048272196 0.08495609 0.07795619 0.051448546
000060 aa 02 c7 bc 54 51 80 ba bf 38 f4 bc 0b 87 43 bd
       -0.024293263 -0.0009789863 -0.029812215 -0.04773621
000070 a1 84 a9 3d ad bc 5e 3d 52 47 3d bd a9 c3 d3 3d
       0.0827725 0.054379154 -0.046210594 0.103400536
000080 30 61 0a 3e 7c 7f 05 3e 9e f3 20 bd 6c 5e e2 3d
       0.13513637 0.13036913 -0.03929483 0.11053166
000090 9b 01 75 3d 26 56 ba 3d a2 6b b9 3d 08 bf 35 3d
       0.059815984 0.09098463 0.090537325 0.044371635
0000a0 e1 39 99 3d 7e 95 01 3e 58 0a 73 3c b5 e5 5a 3d
       0.07481743 0.12654683 0.014834009 0.053441722
0000b0 03 9f 2a bd 6b 5d 82 bd 6b 73 ec bc b7 cb d1 3c
       -0.04165555 -0.06365474 -0.02886363 0.025609834
0000c0 e1 17 91 3c 28 b8 14 3d a5 26 d0 bc fa 6a 21 3c
       0.017711582 0.036308438 -0.025409052 0.009852165
0000d0 99 41 2a bd 4c c0 d8 3d 58 68 66 3d 78 f7 37 bd
       -0.041566465 0.10583553 0.056251854 -0.04491374
0000e0 40 e3 64 3c 0d eb 07 3e 86 64 a6 3c ca f3 06 be
       0.013970196 0.13273259 0.020311605 -0.13178936
0000f0 d5 bd b4 3b 10 8c 19 bd 04 35 0a bc d5 95 db bd
       0.005515794 -0.03748709 -0.0084354915 -0.107219376
000100 3b 5b 87 39 b9 40 88 bc dd 45 00 be b0 f9 68 3c
       0.00025817179 -0.016632425 -0.1252665 0.014219686
000110 3c 0f 0e be 96 98 34 bc ad fc 5e bd d2 f7 9b 3c
       -0.13872999 -0.011022707 -0.05444019 0.019039068
000120 5b 14 93 bd 1f 2e bf bd 60 88 ee bc 11 51 3f 3d
       -0.07181617 -0.09334969 -0.029117763 0.04670817
000130 cf 69 0e 3d 5a 4e 3d bd f3 6f 09 bd 23 8d 98 3d
       0.034768876 -0.0462173 -0.03355403 0.07448795
000140 1e 5b e0 bd 38 6a 93 3d 2e 46 c5 3d 36 41 be 3d
       -0.10954879 0.07197994 0.09632526 0.09289782
000150 e0 b7 4c 3d ac bb 78 3d 58 06 11 bd 40 1a 46 3e
       0.049980044 0.060725853 -0.03540644 0.19345951
000160 c2 90 d9 3d b3 aa 1d 3e c4 15 85 bd 7d 9f 2e be
       0.106233135 0.15397148 -0.06498292 -0.17053027
000170 95 f4 f3 bd 30 9b 2d be f7 3c 29 be 0e 3e c9 3d
       -0.11911885 -0.1695373 -0.16527162 0.09826289
000180 4a 66 be bc cc e6 80 bd 35 5a 1e be e0 c8 32 3d
       -0.023242135 -0.06294021 -0.15464099 0.0436486
000190 45 fb aa 3c eb 15 83 bc a0 e8 79 3d f1 10 fc bd
       0.020871768 -0.016001662 0.061012864 -0.12307919
0001a0 fc 5c 43 3d 27 88 06 3c f5 e8 ef bb 03 90 03 3e
       0.0476961 0.008211172 -0.007321472 0.12847905
0001b0 b6 63 89 3c b3 12 00 3e cd 58 a3 3d fe 9c ca 3c
       0.016771179 0.12507133 0.07975922 0.024733063
0001c0 bb c6 3d 3e b0 ce 7f 3e cd a0 1e 3e 67 87 36 3b
       0.18532841 0.24981189 0.15491028 0.0027851702
0001d0 e9 ea 65 be eb 12 86 be 22 21 8d be ec 3b e8 bd
       -0.22452892 -0.26186308 -0.2756434 -0.11339554
0001e0 83 f1 1a 3e fe aa 62 bd 0c d2 b0 bd 22 27 8f be
       0.15131192 -0.055338852 -0.08633813 -0.27959543
0001f0 c2 4b 1a 3d 90 3b 6d bb 76 d5 29 bd 38 ad f9 bd
       0.037669905 -0.0036198832 -0.041463338 -0.12191242
000200 8e 8d 81 bd 98 bd 54 3d b0 35 03 be 49 c0 89 3a
       -0.063258275 0.051938623 -0.12813449 0.0010509576
000210 e1 7c 33 3e 8d 89 27 3e 11 15 14 3d a4 25 91 bd
       0.17528106 0.16361065 0.036152903 -0.070872575
000220 0e fd 3f 3e c7 6b 57 3e 37 41 61 3e 69 1a 50 bd
       0.18748876 0.21037208 0.21997534 -0.050806437
000230 fd 53 0e bc 52 f1 c0 bd b8 31 26 be d7 b9 a0 bc
       -0.008687017 -0.09421028 -0.16229904 -0.019619865
000240 b1 e4 ee bd de 60 f1 3d 71 c4 7c 3d 0b 8b c8 bd
       -0.11664713 0.11786054 0.06171078 -0.09792145
000250 14 50 4a be a0 b9 19 3c bd 45 08 bd de 43 5e bd
       -0.1975711 0.009382635 -0.033269633 -0.054263942
000260 8b e2 05 be a8 11 48 bd e4 a5 2f bc 97 c3 1f bd
       -0.130747 -0.048844963 -0.010720704 -0.03900489
000270 eb 37 0c 3a de 1c 27 be d4 a4 3d bc aa 16 be 3c
       0.00053489086 -0.16319606 -0.011574943 0.023204166
000280 b8 92 20 be e6 74 60 be 61 1a 6a bc 31 d8 0c be
       -0.15680969 -0.21919593 -0.014288516 -0.13754345
000290 02 db 13 bd 8e b1 2f be e9 47 6f bd 31 48 a7 bd
       -0.036097534 -0.17157575 -0.05841819 -0.08168066
0002a0 71 cb b7 bd 72 40 16 be ff b2 aa bd 5b d7 3a be
       -0.0897435 -0.14673021 -0.08334922 -0.18246214
0002b0 9d fd 89 bd 71 c8 2c be 32 3d 58 bd 34 07 70 bd
       -0.06737826 -0.16873337 -0.052792735 -0.05860062
0002c0 9e ee 0b bc 8b 58 64 3d d2 58 dd 3d 41 35 de bd
       -0.0085407775 0.055748504 0.10807957 -0.10850001
0002d0 08 dd fe 3c 8d 78 88 bc aa 0d e6 3d e5 66 0f bd
       0.031111255 -0.016659046 0.11233075 -0.035010237
0002e0 ae fc 5e 3c 12 9b d8 3d 3c 6b bc 3d 00 c2 ff bc
       0.013610048 0.10576452 0.09200141 -0.031220436
0002f0 00 50 1e bd 8c 57 93 bd 88 ab 82 3d 76 3c c4 3c
       -0.038650513 -0.071944326 0.06380373 0.023954611
000300 5b 8d 4e bd 0a 9f 84 3b 4b fe 88 3d f7 fb 76 bd
       -0.050427776 0.0040472792 0.066891275 -0.060298886
000310 2b 76 55 bd fe 4b 7c 3d 10 d6 87 3d 74 57 a7 3d
       -0.052114647 0.06159591 0.06632626 0.08170977
000320 18 66 51 3b 3b 5e 30 3e 6e 92 40 3e 86 63 ca 3d
       0.0031951722 0.17223446 0.18805858 0.09882264
000330 09 fa 90 b8 31 6a ce 3d 79 4f f8 3d 0a 8c ff 3d
       -6.913028e-05 0.10078848 0.12124533 0.12477882
000340 39 26 ab 3d 45 03 92 3d 45 91 42 3c ba 2a eb 3d
       0.083569 0.0712953 0.011875455 0.11482759
000350 8e 87 ba 3d 2a 43 24 3e 56 b8 bc 3d 4d 6d 18 3e
       0.09107886 0.16041246 0.09214847 0.14885445
000360 2d 0c e0 3c 31 6f 10 3e 4f cd a1 3d ff dc 5b 3d
       0.027349556 0.14104916 0.07900488 0.053677555
000370 f6 05 16 3e d7 a3 9c 3d ff c4 c0 3d 6f a4 ab bc
       0.14650711 0.076484375 0.09412574 -0.020952431
000380 bc 9c 8a bd 3a cf 93 3d 65 2a b9 bd 26 90 bd bc
       -0.06768176 0.0721726 -0.09041289 -0.023140024
000390 aa 37 a9 bd 37 38 9a bd cd ba 3f 3d eb 78 e3 bd
       -0.0826257 -0.075302534 0.046809006 -0.11107048
0003a0 61 56 f4 bd 39 c3 af bc 44 71 f9 3c b8 41 48 3d
       -0.11930538 -0.021455394 0.030449517 0.0488908
0003b0 18 6f e1 3d 13 b5 b6 bc bb 8b a0 3d a2 2f ee 3d
       0.110075176 -0.02230314 0.078391515 0.11630179
0003c0 fe cb 86 3d 71 eb ce 3d 55 08 85 3c d4 77 dd 3c
       0.06581877 0.10103501 0.016239325 0.027034678
0003d0 52 f4 52 3e 7c 59 d1 3d 08 04 13 bd ee 81 8f 3d
       0.20601013 0.10222146 -0.035892516 0.07007204
0003e0 64 09 0e 3d 4d b6 27 3e 7a c8 1b 3c 12 d8 bd 3d
       0.034676924 0.16378136 0.009508247 0.09269728
0003f0 ed 21 a8 bd a5 5c c9 bd 73 7f 3d 3c b7 b5 0f 3d
       -0.08209596 -0.09832124 0.011566031 0.035085406

conv1.bias f4 [6]
000000 d9 ba 82 be c7 aa 92 bc 35 54 69 bd 3a 48 09 bd
       -0.25533178 -0.017903699 -0.05696507 -0.033516146
000010 b2 5d 15 3e 83 50 7a bc
       0.14586523 -0.015277985

conv2.weight f4 [16, 6, 5, 5]
000000 bc 0d ad bd ad 3a 11 be f7 6b 16 be af ca b3 bd
       -0.08449885 -0.1418254 -0.14689623 -0.08778893
000010 f7 df bf bd 5b 13 50 be 6f f4 10 be 5a e7 09 be
       -0.0936889 -0.20319884 -0.14155744 -0.1346716
000020 c4 51 6d 3c ff 82 6b 3d 36 67 01 be 3a bf d4 3a
       0.0144848265 0.057497974 -0.12637028 0.0016231306
000030 3f 10 80 3d 02 f9 07 3e ae 21 fa 3d f4 5a a5 bd
       0.06253099 0.13278583 0.12213455 -0.080739886
000040 06 a0 ae 3d db fd f2 3c 5b bf 8d 3d ea b1 a5 3d
       0.08526616 0.029662063 0.06921264 0.08090575
000050 ab cf d2 bc 68 20 b9 3d 69 df e5 bc 5e b5 cf 3c
       -0.02573379 0.09039384 -0.028060632 0.025355037
000060 47 fa ac 3d b8 99 ec bd 61 e7 80 bd 8b 43 ce bd
       0.08446174 -0.11552757 -0.06294132 -0.100714765
000070 a3 39 98 3c 88 ad 93 bd 3c f1 b1 bc 54 0a fd bd
       0.01858217 -0.07210833 -0.021721475 -0.123554856
000080 b8 f5 37 be aa 2c e5 bc 45 91 a3 bd 99 a0 08 be
       -0.17964828 -0.027975399 -0.07986692 -0.13342513
000090 92 b1 0f be cc 00 a7 be 9d df 9d bd cc 71 48 be
       -0.14032581 -0.32617795 -0.077086665 -0.1957466
0000a0 27 ae 60 be 66 11 c0 bd 66 77 5d be 00 d3 ee bd
       -0.21941434 -0.093783185 -0.21627578 -0.11661339
0000b0 44 88 58 be a4 eb c3 3c f1 e3 35 3c 25 fe 1e bd
       -0.21145731 0.023916073 0.011101709 -0.03881659
0000c0 2d 77 b9 bc a6 36 1f bd 46 bc a6 3d a7 b7 9b 3d
       -0.022639835 -0.038870476 0.08141379 0.07603388
0000d0 d7 4e 4b bd e0 85 1e be 04 e9 ab be 7d 28 2b 3e
       -0.049635734 -0.15480757 -0.33576214 0.16714664
0000e0 4d e7 1f bd b7 4f ba bd aa cb 97 bd f0 32 03 be
       -0.039038945 -0.09097236 -0.07411893 -0.128124
0000f0 1c 07 78 3c 76 a7 71 be 0c 7c f0 bd eb 74 a6 bd
       0.015138414 -0.23599038 -0.1174241 -0.08127769
000100 e2 36 de bc 67 65 17 bc af 33 36 bd 92 fb 3c bd
       -0.02712578 -0.009240485 -0.044482883 -0.046138354
000110 c2 12 b4 3d 9f bf 22 3d 69 ca 9a 3d 06 6e 61 3c
       0.0879264 0.039733525 0.07558138 0.013759142
000120 58 6a 0e bc 15 dc 08 bc ec d3 0d 3d 46 87 e8 bd
       -0.0086923465 -0.008353253 0.034625933 -0.11353926
000130 c4 8d d2 bd 05 fa 83 bc 5a 21 b4 3d cb 93 52 bb
       -0.10280946 -0.01611043 0.08795424 -0.0032131549
000140 cf d9 d1 bd 21 1d df 3d 94 58 66 3d ea 6c 9e 3d
       -0.10246622 0.10894228 0.05623682 0.077356175
000150 8f ec 96 3c 60 93 07 3d 47 19 99 3c ab 1a 0c 3c
       0.018423347 0.033099532 0.018688811 0.00855128
000160 f9 bb b6 3c f8 c5 3d 3d bd b2 cc bd f7 68 df 3c
       0.02230643 0.046331376 -0.09995029 0.02727173
000170 0c 67 4a bd 39 d7 c4 bd 85 eb 3d bb e1 9b cb bc
       -0.04941468 -0.09611363 -0.0028979492 -0.024854602
000180 ef 77 5e 3d 14 3f cd 3a 7b 75 ef 3c e5 20 78 3d
       0.054313596 0.0015659058 0.029230824 0.060578246
000190 d3 c1 2a 3d ed 34 cd 3d e3 fc e6 bc d1 26 64 bc
       0.04168875 0.100198604 -0.028196758 -0.01392527
0001a0 ec 54 e8 bc cf 88 bd 3d 2e e5 2b 3d dc 45 b7 3d
       -0.028360806 0.0925461 0.04196661 0.089488715
0001b0 3a a1 8a bc b2 a9 85 bd 34 3b cb 3d bb 70 43 3d
       -0.016922582 -0.065265074 0.099234015 0.04771493
0001c0 8a b5 96 3c c8 41 ce 3d 7a 31 fe bc d9 a7 d5 3a
       0.018397111 0.100711405 -0.031029452 0.0016300633
0001d0 dc 53 60 3d c1 33 5a 3d 67 0d 41 bb f6 7a da bc
       0.054767475 0.053272013 -0.0029457451 -0.02666996
0001e0 c9 c3 4c 3d e5 87 36 bd b4 63 ac bc db 24 60 bd
       0.049991403 -0.044563193 -0.021043636 -0.054722648
0001f0 ae ff 16 be 98 71 b3 bd d9 8b 3a 3e 27 dd e8 3d
       -0.14745972 -0.08761901 0.1821741 0.113703065
000200 a9 6d 49 3e 1d 3c 27 3e 92 59 fc 3d 8b ae 29 3e
       0.19670738 0.16331525 0.12321772 0.16570489
000210 59 f6 9f 3d bd bd e0 3d 6a fd 32 3d 36 9f 3c 3e
       0.07810659 0.1097369 0.043698706 0.18420109
000220 66 95 85 3d 9c 5a 95 3d 4f db fd bd 89 0a 4b 3c
       0.06522636 0.07292673 -0.123953454 0.0123926485
000230 c3 0b a1 3d ac c7 c7 bc 86 86 c5 3c f4 03 a8 bd
       0.078635715 -0.024387203 0.024111997 -0.08203879
000240 18 de 77 3d d3 cd 62 3d a4 86 29 3c 43 47 87 3d
       0.06051454 0.05537207 0.010347042 0.06605389
000250 31 a7 b5 bd 47 b8 58 3d 62 3b f2 bd b8 ec 77 be
       -0.0886978 0.052910116 -0.118277326 -0.24211395
000260 65 44 a0 be 7d 60 b9 be 57 e0 68 be 62 f1 04 3c
       -0.3130218 -0.36206427 -0.22741829 0.008114191
000270 dc d9 0d be ff 71 79 be 2b 76 9c be 19 0d f8 bd
       -0.13852638 -0.24359892 -0.30558905 -0.12111873
000280 a3 a6 2d 3e 1b 57 28 3e 12 40 54 3e d3 6c 1b 3e
       0.16958098 0.16439478 0.20727566 0.15178232
000290 cb f4 50 3e aa c8 26 3d 4a 23 13 3e 61 42 59 3e
       0.20405881 0.040718712 0.1436893 0.21216728
0002a0 08 b4 2d 3e e6 88 82 3e 3e 91 a6 bd a0 31 24 bd
       0.16963208 0.2549507 -0.081331715 -0.04008639
0002b0 12 12 bc bb a0 3e 1f bd 6d cf cb 3d 03 ef 48 3e
       -0.005739459 -0.038878083 0.09951673 0.19622426
0002c0 bf f5 8a 3b 98 d8 ed 3a f1 22 04 3d 36 2b a1 3d
       0.004240721 0.0018146215 0.032259885 0.0786957
0002d0 99 4b 4c 3e be 95 e7 3d 19 3f 31 3e 4e ab 6b 3e
       0.19950713 0.11307858 0.17309226 0.23014566
0002e0 a6 a0 64 3e cb 81 b6 bb c7 2f 84 3d 41 ac 84 3d
       0.22326908 -0.0055696717 0.06454425 0.06478167
0002f0 eb db 4d bc ee 97 0a 3e 1c 51 15 bd 50 bc a8 bc
       -0.01256464 0.13534519 -0.036454305 -0.020597607
000300 2c a8 ed 3b 1c 2a bb bc b8 94 87 3d 44 49 1b 3d
       0.0072527137 -0.022847228 0.06620163 0.03791167
000310 cc 92 97 bd 79 68 37 3b 58 de 2b bd c6 29 07 3d
       -0.07401046 0.0027985855 -0.04196009 0.032998823
000320 65 b1 68 bd 23 ca 9f bd 62 0e cf bb da 9a 09 bd
       -0.0568098 -0.078022264 -0.0063188532 -0.033594944
000330 7e af 0d 3d 51 b0 ad bd 4d 31 ae bd c2 39 b1 3c
       0.03459119 -0.08480895 -0.08505497 0.021633986
000340 12 1b a9 bd 9d c3 a3 3b 42 31 01 3e 95 a6 2c 3c
       -0.082571164 0.004997684 0.12616447 0.010537763
000350 17 9b 8e 3d 85 e8 c9 bc 34 f8 a1 3d 8f aa 48 bb
       0.06963175 -0.024647007 0.07908669 -0.003061924
000360 33 24 b1 3d 90 9b 72 3b 55 99 a5 3b 11 26 6a 3d
       0.086494826 0.0037018992 0.005053679 0.05716521
000370 52 d6 a0 3d 66 e2 83 bd 04 48 2c 3c 18 51 c7 3c
       0.07853378 -0.064396665 0.010515217 0.02433066
000380 4f 69 13 3d 21 26 6b 3d a8 a5 e4 bc d5 e8 84 be
       0.035989102 0.05740941 -0.027911022 -0.25958887
000390 81 62 39 be e4 1e a6 bd 88 0e 2b 3e 31 14 06 3d
       -0.18103983 -0.08111361 0.16704762 0.0327341
0003a0 aa 11 e8 3d 0e 81 f7 3d f1 4b 1d 3e d1 02 ef 3d
       0.11331494 0.12085162 0.15361 0.11670459
0003b0 90 a2 43 3e eb 5d ce 3d 92 d6 f0 3d fa 0c cf 3d
       0.19104981 0.10076507 0.11759676 0.10109897
0003c0 fe 6b d4 bc 84 bc e4 3a 37 4f 05 bc e6 93 ff 3b
       -0.025930401 0.0017451202 -0.008136562 0.0077996133
0003d0 0b e1 a6 bb dc fd ec bd 3c de 41 be 64 e5 22 be
       -0.005092745 -0.11571857 -0.18932432 -0.15907818
0003e0 93 e6 21 bd 20 0d 42 bd 1d 47 6f bd ce 95 b1 3c
       -0.039526533 -0.0473758 -0.05841743 0.021677878
0003f0 58 d7 02 3d 0c 14 d7 3c 4f b8 c8 bd 54 aa 9f bd
       0.03194365 0.026254676 -0.09800779 -0.077961594

conv2.bias f4 [16]
000000 9a dc 6d 3e b5 9c 62 3d 2d 87 b4 3e 46 59 86 bd
       0.23228684 0.05532523 0.3525938 -0.06559996
000010 5e ba e1 bc 0c 66 bf bc 86 d8 6a be 0b e7 db bd
       -0.027554687 -0.02336409 -0.2293416 -0.10737427
000020 48 6b 82 3e b8 05 5c bd d9 f2 91 3e ea 63 6c 3e
       0.25472474 -0.05371639 0.2850559 0.23084989
000030 e0 b9 00 be 94 c6 c8 3d 12 a8 cf 3e bd 65 b4 be
       -0.12570906 0.09803501 0.40557915 -0.3523387

fc1.weight f4 [256, 400]
000000 ff e4 07 be e2 f5 14 bd b6 f1 09 bd ec 30 0f 3e
       -0.13270949 -0.036367305 -0.03367778 0.13983506
000010 37 1c b0 3b 21 79 35 3d da 34 66 bd 43 26 9d 3c
       0.005374457 0.04430497 -0.056202747 0.019183284
000020 f3 5b d7 3d 0f 49 ab 3a 68 f5 a2 bb 3d cd 79 bc
       0.10515585 0.0013068038 -0.0049731024 -0.0152466865
000030 5c 11 0c 3e c9 24 ec 3d ca fe cb 3d ce 7c 39 bb
       0.13678497 0.11530454 0.099607065 -0.002830315
000040 19 ce d9 3d 85 4f 8c 3c d8 21 1c bd 8e 93 96 3d
       0.10635013 0.017127762 -0.038118213 0.073523626
000050 f5 02 02 bd 0f e3 dc 3d 77 00 11 be 4f 69 06 be
       -0.0317411 0.107854955 -0.14160334 -0.1312611
000060 04 cc ff 3d 57 8d 2a 3e fa 1b f1 3d 8d 48 8a bd
       0.12490085 0.1665548 0.11772914 -0.06752119
000070 39 29 a0 bd 33 15 c3 3c ba f5 db 3d 6f e9 d9 bc
       -0.078203626 0.02381382 0.10740228 -0.026600568
000080 86 81 98 3c 60 42 2e 3d 26 2e e9 3d 0d cb a7 3d
       0.01861645 0.04254377 0.11385755 0.08193026
000090 50 cd 99 3d a9 c6 34 3d ec 43 9f 3d bc 7a 93 3e
       0.075098634 0.04413477 0.07776627 0.28804576
0000a0 b5 19 a1 3b 17 da 1c 3e 44 75 0e 3e 81 96 07 3c
       0.0049163946 0.1531757 0.13911921 0.008275629
0000b0 1d 78 f1 3d f5 4c b1 3c 6c fd 19 3e 32 89 fe 3d
       0.11790488 0.021643141 0.15038079 0.12428512
0000c0 8d 8c b1 bc 9b ac d1 3d a5 67 4a be 5b d7 a6 bd
       -0.021673465 0.10238 -0.197661 -0.081465445
0000d0 b2 bf bb bd 84 22 06 be ac 87 6d bd 9d bd 22 be
       -0.09167422 -0.13099104 -0.057990715 -0.15892644
0000e0 a6 1d 05 be d9 6e 28 be 7b 36 b3 3d 6a 9b 90 3d
       -0.12999591 -0.16448535 0.08750626 0.07060893
0000f0 7b 38 18 3e 9d 0e 53 3e 83 27 a4 3d 8d 58 1f 3e
       0.14865296 0.20611043 0.08015349 0.15561123
000100 ea 45 ca 3d e0 9b 99 3d 2b b0 42 3e d9 c3 98 3d
       0.09876616 0.07500434 0.19012515 0.0745923
000110 c5 ca 84 bd 0a 13 d0 bd 43 18 b0 bd 04 06 5a 3d
       -0.06483988 -0.101598814 -0.085983776 0.053228393
000120 16 a7 ed bc 50 d5 44 be 91 6c 66 be 75 a9 cf 3d
       -0.029010337 -0.19221997 -0.22502352 0.10139743
000130 a8 94 79 3d 78 a8 8c 3d ab 10 03 3e 6e cc ae 3e
       0.060932785 0.0686807 0.12799327 0.34140342
000140 24 12 1b be 6c e0 0b bd f2 04 8c 3c 6e ff 33 3d
       -0.15143639 -0.034149572 0.017092202 0.04394477
000150 7d 99 b6 3c 38 99 54 be 9b e7 4e be 9a be 8c bc
       0.022289986 -0.20761573 -0.20205538 -0.01718073
000160 a3 a3 b0 bd a3 bf 88 be a9 bc ae bd b1 0c 34 be
       -0.08624961 -0.26708707 -0.08532078 -0.17582966
000170 26 09 c9 bc 13 99 3b 3c ef 91 01 be 18 12 eb 3d
       -0.024540495 0.01145007 -0.12653325 0.114780605
000180 b0 d8 45 bd 21 56 da 3d bb 5a d2 3d f0 f7 4d bd
       -0.048302352 0.10660959 0.10271212 -0.05028528
000190 c9 12 a8 3d 56 e0 b6 3d b9 be 46 3e 7e 70 0a 3d
       0.08206708 0.089295074 0.19408692 0.033798687
0001a0 4d 41 b8 3d e4 98 74 3c 13 88 d1 3c f7 57 84 3d
       0.0899683 0.01492903 0.02557758 0.064620905
0001b0 2c ba 49 3d a7 04 31 be be ea 1f bd 0f d7 89 bd
       0.049249813 -0.17286931 -0.039042227 -0.06730472
0001c0 e8 37 4e bd a7 e6 78 bd 41 3f 05 be 2e 6f 63 bd
       -0.050346285 -0.060766842 -0.1301241 -0.05552595
0001d0 53 08 19 bd ca 5b 7c 3c 6d 1a 48 bd 6d f9 26 bd
       -0.037361454 0.015402744 -0.048853327 -0.040765215
0001e0 e3 6a b3 3b 8d 7d e5 3c 7f d4 0a 3b 1b ec 3e 3d
       0.0054753884 0.028013969 0.0021183786 0.046611886
0001f0 39 9e 38 3d 12 dd cd 3d 57 35 03 3e 08 91 6c 3d
       0.045072768 0.100519314 0.12813316 0.0577555
000200 c1 e1 46 3e c4 8b 5b 3e 5f ee f7 3d bd 05 9b bb
       0.19422056 0.21440035 0.121060126 -0.0047309087
000210 3a 71 1a bd 8c 9c 5e bd 66 1e 1d be a2 14 48 bc
       -0.037705638 -0.054348513 -0.15343627 -0.0122119505
000220 28 b8 80 bd 22 fd 91 be 7a d5 09 be b8 c0 51 be
       -0.06285125 -0.28513438 -0.13460341 -0.20483673
000230 62 9a 5b be 55 85 b9 be f5 5c 29 be dd 51 2b be
       -0.21445611 -0.36234537 -0.16539367 -0.16730447
000240 63 04 8e be 0f 03 10 bf dc b2 0e bf 18 10 97 be
       -0.27737722 -0.5625467 -0.5574167 -0.29504466
000250 d0 f3 c3 be 41 49 a5 be f3 a8 72 3e 50 f0 97 3c
       -0.38271952 -0.3228245 0.23697262 0.018547207
000260 08 64 27 bd c6 fa 9b 3d ea b6 74 3e bb 9d 58 3e
       -0.04086688 0.076161906 0.23897901 0.2115392
000270 78 86 e4 3d 00 f2 09 3d ad e4 c0 bc 0b 9a b4 3d
       0.111584604 0.033678055 -0.023546541 0.08818444
000280 0f d8 ca 3d b6 b0 37 3e b9 08 c8 3d 9c 76 84 bc
       0.09904491 0.17938504 0.09767289 -0.016169839
000290 df 21 97 3d 6b 86 15 be 92 66 65 3c 22 29 65 3c
       0.07379507 -0.14602058 0.014001505 0.013986858
0002a0 17 27 ab 3d ce dd 13 3e 32 54 24 3e 65 b7 46 3e
       0.08357065 0.1444008 0.16047743 0.19405897
0002b0 76 62 f5 3d 14 bc 00 3e b1 58 3a 3e af 71 c7 bb
       0.119816706 0.12571746 0.18197896 -0.00608655
0002c0 1f a4 8b bc 7b b4 b4 bb 37 44 c6 3d 8b 9d ac bb
       -0.017046032 -0.005514679 0.0968098 -0.005267804
0002d0 98 c1 af 3c 76 59 a5 3d 24 2c 86 bc 21 4e 72 bd
       0.021454617 0.08073704 -0.01637847 -0.05915654
0002e0 5b 5c ae 3b b0 cd 55 bd 4b 73 1c 3d 16 e0 ec bc
       0.005321068 -0.052198112 0.03819589 -0.028915446
0002f0 0b ea ab 3c 4a 6b 2d 3c b5 ea dc 3c d4 1a 81 3c
       0.020985624 0.010584662 0.026967386 0.015759863
000300 d5 c4 a1 bc 3f f6 23 3b 71 68 37 3d 71 cf 1a 3d
       -0.019747177 0.00250186 0.044777337 0.037795488
000310 c3 b5 b0 3c f4 77 8f 3d 1e 68 ed 3d c7 95 28 3d
       0.021571046 0.07005301 0.115921244 0.041158464
000320 73 4d 5f be 99 1d 3b 3d 99 9f 11 3d 49 52 36 3e
       -0.21806888 0.045682523 0.035552595 0.17804827
000330 ff 8b 87 3a c1 08 cb bc e8 9e 89 3c 1f b8 cf 3d
       0.0010341405 -0.024784448 0.016799405 0.1014254
000340 6a 1d 78 3e 01 81 c7 3c 77 d7 76 3d c0 af 08 be
       0.2422997 0.024353506 0.060264077 -0.13348293
000350 7d 4f b3 3d 64 f3 1a 3d 68 59 0c 3d f8 bd fd bc
       0.087553956 0.03782977 0.034264952 -0.030974373
000360 4f c5 c6 3c e6 ae 25 3e 46 b5 2f 3d 94 6d 27 be
       0.024264006 0.1618 0.042897485 -0.16350394
000370 70 42 2d 3d 65 a1 51 bd 1a 17 92 3e 85 e7 6e 3e
       0.042299688 -0.05117931 0.2853325 0.23330505
000380 c4 1c 33 bd 71 ff ba 3d 87 a3 83 bd d5 3e 93 3d
       -0.043728605 0.09130753 -0.06427675 0.07189719
000390 7a c9 95 bb c7 76 be 3d 70 77 e7 3d 7b 71 a0 bc
       -0.004571137 0.09299999 0.11302078 -0.019585362
0003a0 3b 27 b9 bd 4f 86 02 be d4 0d f2 3b d5 12 4e 3e
       -0.09040686 -0.12746547 0.0073869023 0.20124371
0003b0 63 0b 2c bd d6 7c f6 bc 3c 10 59 be 62 b6 03 3d
       -0.042003047 -0.030088823 -0.21197599 0.032156356
0003c0 95 64 44 3e b6 5a ae 3d c9 0f 6f 3e 74 fc 05 3e
       0.19178994 0.085133955 0.23345865 0.13084584
0003d0 5a e5 fb 3d a3 d7 36 3e 0a 6a 03 3e 3b 37 50 3e
       0.12299605 0.17855696 0.1283342 0.20333569
0003e0 70 7f ef 3d bb e6 5e 3e 68 7f 4e be 61 01 1f be
       0.11694229 0.21767704 -0.20165789 -0.1552787
0003f0 7d f9 84 bd eb 32 ac bd b1 19 21 be 31 89 94 3d
       -0.064928986 -0.08408149 -0.15732457 0.0725273

fc1.bias f4 [256]
000000 99 01 ac bd 55 c7 41 3c 96 9a fc bc 23 d8 e5 bc
       -0.08398742 0.01182731 -0.030835431 -0.028057164
000010 2c f9 df 3e 39 43 ed 3e 03 5c e9 3b 9f 22 fa bc
       0.4374479 0.4634035 0.0071215644 -0.030534087
000020 a0 e2 00 3a 25 f0 19 3e 40 2c 03 3e 13 64 8b 3d
       0.0004916582 0.15033014 0.12809849 0.06806197
000030 8b f6 30 be ab a5 b4 3e 43 6a 2d bd 5e 67 0f bd
       -0.17281549 0.35282645 -0.042337667 -0.035010688
000040 a2 53 1f be fc e7 60 3e 40 4a 3a 3d 68 7a 87 3c
       -0.15559247 0.21963495 0.045480967 0.01653786
000050 f4 f4 e3 3d 61 dd 0a 3f 86 dc f5 3d ac 5e 7f 3e
       0.111307055 0.5424405 0.12004952 0.24938458
000060 c0 03 0c 3d 83 ac 08 3f 56 83 0b 3f ed 93 a2 3d
       0.034183264 0.5338823 0.5449728 0.07938371
000070 43 b3 f3 3e 1f 02 89 ba ac 46 9d bd 7b 74 9e 3e
       0.47597703 -0.0010452903 -0.07679495 0.30948243
000080 91 c9 e8 3c 43 d1 d9 bc e5 19 93 3e c3 db 9f bd
       0.028416427 -0.026589042 0.28730693 -0.07805588
000090 e0 80 27 ba 2e da 55 3e b3 e8 5c 3e 6c c8 b3 3d
       -0.00063897483 0.2088401 0.21573143 0.08778462
0000a0 21 8c 0b 3e d4 b0 cb bb e6 30 17 3e 97 20 6b 3d
       0.13627674 -0.006216148 0.14764747 0.057404127
0000b0 4c 1b b6 bd f1 b3 50 bd 44 f0 29 3b b8 51 f3 3c
       -0.08891925 -0.050952855 0.0025930563 0.029702052
0000c0 b0 29 f6 3e 8a d2 89 3e 9a 25 90 3e 98 7f ce 3e
       0.4807868 0.2691844 0.28153688 0.4033172
0000d0 95 be 90 bd d4 17 fc 3e 4f dd b3 3d 5d fc f7 3d
       -0.07067601 0.4923693 0.08782446 0.12108681
0000e0 15 83 c9 3e 24 be 92 bd d9 df 90 bd 86 33 7b bd
       0.3935782 -0.07165173 -0.070739456 -0.061328433
0000f0 c0 01 4a 3e 7a fa fc bc df b0 b9 bd b2 b9 fb 3d
       0.1972723 -0.030881155 -0.090669386 0.12291278
000100 09 72 58 3e bd 61 ab 3e a5 71 82 3e df ae c1 3e
       0.21137251 0.33473006 0.2547733 0.3782873
000110 bf 67 93 bd 47 49 c0 bc 18 7e 25 bd 86 88 7c 3e
       -0.07197522 -0.023472441 -0.040403455 0.24661455
000120 a1 ff e5 3e 0a 4d 32 bd d2 f7 d5 bc 2b a7 06 be
       0.44921592 -0.0435305 -0.026119146 -0.13149707
000130 9e 3c 63 ba 8f 17 76 bd 33 60 2f bd 70 bc 55 3e
       -0.00086683955 -0.06008106 -0.042816352 0.20872664
000140 c3 77 83 3e 87 b8 92 3e ba fb 21 3e b0 db 4e bd
       0.25677308 0.28656408 0.15818682 -0.05050248
000150 3b c2 75 be 02 08 6d bc 63 e7 83 bd 4f f4 ad 3e
       -0.23999874 -0.014467241 -0.06440618 0.33975455
000160 c4 92 c4 bd 3a 5d 03 3f aa 8b 2d 3e b6 0e bf bc
       -0.09598306 0.5131413 0.16947809 -0.023322444
000170 ab 2c aa 3e 6f 70 94 bd 02 bf ba 3c 59 05 74 bd
       0.33237204 -0.072480075 0.022796158 -0.059575412
000180 b6 d8 af 3e 08 67 a7 3d 3c d0 8b be 30 28 29 3e
       0.34345025 0.081739485 -0.27307308 0.16519237
000190 1c 93 82 bc b9 27 19 bc 01 a1 b4 bd ef be eb 3e
       -0.015939288 -0.0093478495 -0.088197716 0.46044108
0001a0 58 c0 90 3c 01 e0 0c bd 9a a2 ad bc 4f 75 a1 3e
       0.017669842 -0.034393314 -0.021195699 0.31534812
0001b0 e3 68 60 bd 99 fc 0d 3f d9 31 45 bc f8 d9 31 3e
       -0.054787528 0.5546356 -0.01203581 0.17368305
0001c0 53 13 73 3e 10 72 ed bd 8f 8b 18 bd c2 96 66 3d
       0.2373784 -0.11594021 -0.03724247 0.056296118
0001d0 18 a3 f5 bc 4b ec 81 bd f1 75 56 3e 60 32 57 3e
       -0.029984996 -0.063438974 0.20943429 0.2101531
0001e0 e9 04 d5 3e 89 28 ea bd e4 31 c6 3c d7 38 42 be
       0.4160531 -0.11433513 0.024193712 -0.18966995
0001f0 ba da c5 3d 82 01 5d 3d 71 23 8e be 23 d9 c3 3b
       0.096608594 0.053956516 -0.27761415 0.0059768124
000200 8e 24 66 bd c3 85 fd 3e be 34 a8 3c 66 3d 67 bc
       -0.056187205 0.49516115 0.020532962 -0.01411376
000210 e3 c9 f9 3c f5 ce 0f be 9c 38 b0 3c bd 70 5c 3d
       0.030491775 -0.14043792 0.021511368 0.053818453
000220 99 e6 73 bc 64 50 48 bd 38 e7 71 bb e4 6e 9c 3e
       -0.014886522 -0.04890479 -0.0036911499 0.30553353
000230 ae 39 2a 3e 45 fd 6b 3e c7 aa fb 3d 91 81 eb bc
       0.16623566 0.23045833 0.122884326 -0.028748306
000240 7f 28 4a bc 9d 35 d8 bd 9d 44 2e be 0b 40 08 3d
       -0.012338757 -0.10557101 -0.17018361 0.0332642
000250 3e 39 09 3d 9d d1 c1 bc 17 2e 51 3e 02 3b 7e be
       0.033501856 -0.023659522 0.20427738 -0.24827197
000260 57 56 8e bd 74 0b ea bc cc 8f c7 3d 37 1d 0b bd
       -0.06950062 -0.028569914 0.09744224 -0.03396341
000270 31 06 6f 3e ee be e7 3b 38 ab 8b bc e7 ab 84 bd
       0.23342206 0.007072321 -0.017049417 -0.064781
000280 ca 05 85 bd 8d 5d 8e 3e d1 40 b2 3a aa 3a 30 3d
       -0.06495245 0.2780575 0.0013599639 0.043024696
000290 cf cb 4f bd da 5d 42 be b7 59 12 be 2e 7a 38 bd
       -0.050731476 -0.18981114 -0.14292036 -0.045038395
0002a0 f7 41 94 3d 78 28 07 3e aa b2 b3 bd 0b 73 ec 3c
       0.07239144 0.13199031 -0.08774312 0.02886345
0002b0 ce 4d 92 3d cc c4 08 3e 6f bc 73 bd aa 80 63 be
       0.07143746 0.13356322 -0.059505876 -0.2221705
0002c0 64 ab a7 3e 49 80 d4 3e bb 28 6e bd d8 a2 10 be
       0.32747948 0.41504124 -0.058144312 -0.1412462
0002d0 f2 23 63 3d 66 ea ae 3e c6 05 1a bd 0a c2 f9 bc
       0.055454202 0.34163207 -0.037603162 -0.030488033
0002e0 06 e5 03 3f 09 42 93 bd 9d ed 9a be 68 d0 92 bc
       0.5152134 -0.071903296 -0.3025941 -0.017921641
0002f0 3a c7 c9 3b ac 6c be 3d b4 8a 42 bd 85 85 2a be
       0.006157783 0.09298071 -0.04749556 -0.16652496
000300 78 3a f4 bb da e0 91 be 65 f8 20 3e 4a 65 83 bd
       -0.007453259 -0.2849186 0.15719755 -0.06415804
000310 b3 5d 80 be 02 55 9b 3e 24 8e b7 3a 1b f1 83 bd
       -0.25071487 0.30338293 0.0014004153 -0.064424716
000320 7a 9b 0a bd 9c 65 56 3e 7a 49 a2 bc c1 f4 ad 3d
       -0.03383968 0.20937198 -0.019810427 0.08493949
000330 af e9 90 bd e4 0b 32 bc d4 55 2e bd 91 76 42 bd
       -0.070758216 -0.010867093 -0.04256232 -0.047476355
000340 39 ba ed bc 43 06 b9 bd 9c 88 9c be f1 a4 81 bd
       -0.029019462 -0.090343975 -0.30572975 -0.06330288
000350 3a 91 3d 3c 2e b4 38 3e ab cd 82 3e 05 87 7d bd
       0.011570269 0.18037483 0.25547537 -0.061896343
000360 a8 00 bc 3e 68 75 8e 3d ed d7 32 3d 2a 72 18 bd
       0.3671925 0.06955987 0.043662954 -0.03721825
000370 47 f5 95 bc f2 8d 91 3e ff da 9d 3d 8f e5 45 bd
       -0.018305434 0.28428608 0.07707786 -0.048314627
000380 3a 11 54 3c 3a b2 e5 3d 44 7f 4e bd 1c 85 55 3e
       0.01294356 0.11215635 -0.05041434 0.20851558
000390 04 67 aa 3c cb 55 05 3f 5d d7 bb 3e 2d f1 53 be
       0.020801075 0.52084035 0.36687747 -0.2069747
0003a0 db 58 80 3e c3 ba 80 bd 75 a3 be bc 1c c0 1a 3e
       0.2506779 -0.06285622 -0.023271302 0.15112346
0003b0 e0 fd 4c be 62 6f 3d 3e 47 b0 5d bc ad 86 88 3e
       -0.2001872 0.1849952 -0.013530797 0.2666525
0003c0 40 c1 df 3e b1 be 54 3e 66 b9 ac bc 95 a3 ca bc
       0.43702126 0.20775868 -0.021084499 -0.024736205
0003d0 2f 4e e0 3e 1d 54 5c bc 64 21 b8 bc 1e ee 8a 3c
       0.4380965 -0.013447789 -0.02247686 0.016959246
0003e0 51 31 e9 bc 3d 05 ce 3c 3d 8d 07 bd 1a 80 5c 3e
       -0.028465899 0.025148982 -0.03309368 0.21533242
0003f0 33 c5 0c 3f c7 4d d1 3d 1d c2 0f 3f b8 f2 20 3d
       0.549884 0.10219913 0.5615557 0.039293975

fc2.weight f4 [10, 256]
000000 de ea 96 3d 36 a2 a0 bd 5e 8b 38 bc 23 8f cb 3c
       0.07369016 -0.07843439 -0.0112636965 0.024848526
000010 68 51 69 be ca 1c 5e be 6d 42 78 3d 8b ed 9e bc
       -0.2278496 -0.2169067 0.060610224 -0.019400379
000020 6a a9 fd 3d 76 f1 b2 3d e9 9a 2f be 66 b5 89 bd
       0.12385829 0.08737461 -0.17148937 -0.06724052
000030 5d 55 3d 3e 57 ce c6 3c 44 39 b0 bb b9 26 d0 3c
       0.18489595 0.024268312 -0.0053779203 0.02540909
000040 5f 92 0d bd d8 47 5f be 71 a2 1c be 61 9e 0e bd
       -0.03456342 -0.2180475 -0.15296341 -0.03481901
000050 a6 05 2f 3e 8c 4d 8e be 32 04 c6 bc 1f f1 00 be
       0.17091998 -0.2779354 -0.024171922 -0.1259198
000060 cf ca 8d 3c 41 7c a2 be 95 e3 ae be 51 c5 e3 3c
       0.01730862 -0.31735423 -0.34158006 0.027804049
000070 c9 74 92 be 8d 5c 23 3d 0a 53 91 bc 25 c1 ad 3c
       -0.28604725 0.039883185 -0.017739791 0.021210263
000080 1b 88 ad 3c d7 ed a4 3c bf 16 2b 3e 24 d8 1e 3e
       0.021183064 0.020132942 0.16707896 0.15512139
000090 10 7e 19 3d 55 b5 26 be 8a 63 2d be 60 cd 21 3d
       0.03747374 -0.1628011 -0.16932502 0.0395025
0000a0 64 35 e2 3d c3 53 87 be 85 17 58 be 28 4c 31 bc
       0.1104534 -0.26431093 -0.21102722 -0.01082138
0000b0 62 33 20 bd ba dd 33 bd 81 43 ab 3c 84 7a b2 bc
       -0.039111502 -0.043912627 0.020906212 -0.021786936
0000c0 1c db 4c 3e e5 f4 3c be 82 7a 6c 3d 22 21 85 3d
       0.20005459 -0.18452795 0.05773402 0.0650046
0000d0 e4 ae 07 bc 05 a9 25 3e f4 07 92 3d 4c 54 f4 3c
       -0.008281443 0.16177757 0.07130423 0.029825352
0000e0 1e 30 91 be 81 2b 1c bd fe 0a b4 bd 6e 5e 1e 3d
       -0.28357023 -0.038127426 -0.08791159 0.038664274
0000f0 6a ba 0d bd 36 39 e6 bc 3d f0 29 bd cd c4 c1 3d
       -0.034601606 -0.028103452 -0.041488875 0.09461365
000100 39 88 57 be 14 83 33 be 22 7e e8 3d 98 65 6a be
       -0.21048059 -0.17530471 0.11352183 -0.22890317
000110 fc dd 4d bc e3 68 2d bc fa 95 95 bb 58 0e 47 3d
       -0.012565132 -0.010584089 -0.0045649977 0.048597664
000120 d1 fd 1d 3c d5 e6 f7 bc f5 8c 33 3e a0 75 21 3d
       0.009643034 -0.030261436 0.1753424 0.039418817
000130 15 6c c6 bd ae 9f ba 3d c1 73 32 3e 44 15 84 3d
       -0.09688584 0.09112488 0.17426969 0.064493686
000140 5a 06 e9 be 19 3a e4 bd 37 10 6e 3d 08 4e 67 3b
       -0.45512658 -0.11143894 0.058120932 0.0035294313
000150 37 50 37 3d f3 09 b6 3c 90 ea 21 bd 6f 6d 85 3d
       0.044754233 0.022221541 -0.039530337 0.065150134
000160 3b 1b 6d 3d 90 b9 6c be 20 f6 44 be a0 93 72 3e
       0.057887297 -0.23117661 -0.19234514 0.23689127
000170 7f 70 96 be ba 5e e9 3c e3 05 80 3d a8 7b ab bc
       -0.29382703 0.028487552 0.06251123 -0.020932987
000180 1d b9 8f be 44 69 95 3d ce 96 3c 3d 72 66 98 3d
       -0.28070918 0.072954684 0.046042256 0.07441415
000190 e2 8d 03 bd 8f 92 2e bd 4a ba c5 bd 5b bf d5 be
       -0.032117732 -0.042620238 -0.096546724 -0.41747555
0001a0 dd ff c8 3c ae a1 70 3a 90 bf d2 3d 79 bc af 3c
       0.024536068 0.00091793656 0.10290444 0.021452175
0001b0 6d 59 35 3c 3c da 13 be 56 9d 75 3d 04 85 45 be
       0.011068684 -0.14438719 0.0599645 -0.19289023
0001c0 96 72 f4 3d 7b 60 0f 3d 17 b6 b6 bc 81 35 6c be
       0.11935918 0.03500412 -0.022303624 -0.23067285
0001d0 38 f9 9b ba 89 ce 91 bc 91 8b 25 be c7 87 2a bd
       -0.0011899834 -0.017798679 -0.16166522 -0.041633394
0001e0 fd 26 ea bd b9 6f 9e bd 50 39 4b bd ff c0 2a 3e
       -0.11433218 -0.07736153 -0.049615204 0.16675185
0001f0 a7 4a 58 be 49 55 46 3d fd 72 65 3d e4 9b b9 bd
       -0.21122228 0.048421178 0.056017864 -0.09062937
000200 9f af 13 3d 48 fb 93 3d 9e 37 06 bd a3 ef ba bb
       0.036056157 0.072256625 -0.032767884 -0.0057048365
000210 73 f8 81 3d f1 86 86 3d 3a e6 00 bd 88 c6 fc bd
       0.06346216 0.06568707 -0.03146956 -0.12342554
000220 6f 0c 91 bc 9a 88 07 3d 17 12 17 bd 9b c8 ec 3d
       -0.017706124 0.033089258 -0.036882486 0.115617
000230 6e 62 df bd c1 1f ad be f6 5c 8e 3d 80 ed 1c 3d
       -0.10907446 -0.3381329 0.06951325 0.038312435
000240 a4 2c 31 bd 44 0a c1 3d 91 0b 74 3d 1f d2 54 3d
       -0.043255463 0.09425786 0.059581343 0.0519582
000250 cf 7a 44 3d e6 87 6b bd 4a 47 75 bd 06 8a 9c bd
       0.047968682 -0.05750265 -0.05988244 -0.076435134
000260 37 bd 85 3d 29 2e 51 bb d0 f1 5d 3d 95 53 9d 3c
       0.065302305 -0.0031918383 0.05418569 0.019204894
000270 29 ae 40 3d 61 31 50 bc d6 d1 0e 3d 84 5f 4f 3c
       0.047041092 -0.012707085 0.034868084 0.01265705
000280 b4 b4 10 bd 71 75 d5 bd 0f c8 58 bc 26 40 a2 3d
       -0.035328582 -0.10422791 -0.013231291 0.079223916
000290 20 cb 05 bc d6 7e ab 3d a0 8f 14 3e 19 88 44 bd
       -0.008166105 0.083738014 0.14507914 -0.047981355
0002a0 c9 31 e9 3d 46 ce 84 bd 51 54 6d bd 2b 05 10 3d
       0.11386449 -0.06484656 -0.05794174 0.03516118
0002b0 21 41 1e 3e fc eb fc bd 22 81 3f bc 96 30 a3 3d
       0.15454532 -0.12349698 -0.0116885025 0.079682514
0002c0 99 fa 8c bd c9 16 31 3d 25 97 99 bd 03 e7 9e bb
       -0.06883735 0.04323462 -0.07499532 -0.004849316
0002d0 07 69 b2 3d 02 86 64 bd bf 5e 41 bd 8f 28 5d bd
       0.087114386 -0.055791862 -0.047209498 -0.053993758
0002e0 75 e8 98 be 95 4f eb 3c 08 40 ca 3d 11 ba e9 3c
       -0.2986485 0.028724471 0.09875494 0.028531106
0002f0 83 68 97 bd 07 34 4e be e2 75 ee 3d f8 30 fc 3d
       -0.07392981 -0.20137034 0.11643578 0.123140275
000300 64 bd 5b 3d 87 e6 ac 3d d8 78 97 3b 48 af 90 bd
       0.053647414 0.08442407 0.00462256 -0.07064682
000310 56 8f 3f 3d 87 2c e2 bd 47 43 8d 3c c1 44 91 bd
       0.046767555 -0.11043649 0.017243994 -0.07093192
000320 2c e1 8f bd 3c 3c e2 3d ad e8 25 bd 6f 6a 22 be
       -0.0702537 0.11046645 -0.0405051 -0.15860914
000330 fd 12 ca bc eb fd 42 3c 95 25 5c 3d e4 2e 73 bc
       -0.024667257 0.011901359 0.05374678 -0.014842723
000340 86 77 c2 3d 42 20 47 bd a1 25 ae 3d 4a 83 38 bc
       0.094954535 -0.048614748 0.08503271 -0.0112617705
000350 c6 ee d2 3c 10 84 01 3e 10 aa ee 3c 84 c6 ab bc
       0.025748622 0.12648034 0.029133826 -0.020968683
000360 5f 03 97 bd a9 fe 54 3c 8d f9 81 be 72 6a 57 3d
       -0.0737369 0.013000169 -0.25385705 0.05259175
000370 4a c4 dc bc 2f cb 6c be 35 06 be 3d 77 a7 2c 3d
       -0.026949067 -0.23124383 0.09278528 0.042151894
000380 17 98 56 bc f0 2e 26 3c 62 9a 18 bd b4 55 a5 be
       -0.0130977845 0.010143027 -0.037256606 -0.3229195
000390 9c 3d 31 bd 0e fc e7 bd 1c 40 1a be 4b 7f 64 3d
       -0.043271646 -0.113273725 -0.15063518 0.05578546
0003a0 28 27 b1 3d 70 a5 94 bc 4a 06 5a bd c1 ec 04 be
       0.086500466 -0.018145293 -0.053228654 -0.1298094
0003b0 37 a2 fb bd a0 96 61 3b b5 a8 90 3c c7 34 7d 3e
       -0.122867994 0.0034422055 0.01765857 0.24727164
0003c0 2d 7b 91 be 19 3a 0e 3e 55 5c 1c 3d 0c 18 41 be
       -0.28414288 0.1388935 0.038173992 -0.1885683
0003d0 41 45 a2 be 29 50 b3 bc 04 73 05 3d 8d 2b f2 bd
       -0.31693462 -0.02188881 0.03258039 -0.11824713
0003e0 30 c6 2a bd 9f f4 99 3d 10 c1 eb bc 18 99 5e 3d
       -0.041692913 0.07517361 -0.028778583 0.05434522
0003f0 55 12 31 be 3f 55 5f bd fa 37 22 bd 7d 8f 37 be
       -0.1729215 -0.054524656 -0.039604165 -0.1792583

fc2.bias f4 [10]
000000 17 46 9a be 58 4d cb bd 12 e2 08 be c3 21 aa 3e
       -0.301316 -0.099268615 -0.13367489 0.33228883
000010 26 08 8d 3e c8 57 a0 bd 98 f8 2b 3c 5d f1 02 be
       0.2754528 -0.07829243 0.010496281 -0.12787385
000020 d2 65 cc 3d 4b b2 f6 3c
       0.09980358 0.030114314
